…
Again, notice how all of our model layers come right from tensorflow.keras.layers and that we’re using the functional API of Keras. With the functional API, we build our model as a series of sequential functions. The first layer takes the input image as an input variable. Following that, each subsequent layer takes the output of the previous layer as its input. Our model.Model() simply connects the “pipeline” from the input to the output tensors.

For a more detailed description of the model, check out the print out of model.summary() down below.

Model: ""model_1"" _________________________________________________________________ Layer (type) Output Shape Param # ================================================================= input_3 (InputLayer) [(None, 28, 28, 1)] 0 _________________________________________________________________ conv2d_12 (Conv2D) (None, 28, 28, 32) 320 _________________________________________________________________ activation_16 (Activation) (None, 28, 28, 32) 0 _________________________________________________________________ conv2d_13 (Conv2D) (None, 14, 14, 32) 9248 _________________________________________________________________ activation_17 (Activation) (None, 14, 14, 32) 0 _________________________________________________________________ conv2d_14 (Conv2D) (None, 14, 14, 64) 18496 _________________________________________________________________ activation_18 (Activation) (None, 14, 14, 64) 0 _________________________________________________________________ conv2d_15 (Conv2D) (None, 7, 7, 64) 36928 _________________________________________________________________ activation_19 (Activation) (None, 7, 7, 64) 0 _________________________________________________________________ conv2d_16 (Conv2D) (None, 7, 7, 64) 36928 _________________________________________________________________ activation_20 (Activation) (None, 7, 7, 64) 0 _________________________________________________________________ conv2d_17 (Conv2D) (None, 7, 7, 64) 36928 _________________________________________________________________ activation_21 (Activation) (None, 7, 7, 64) 0 _________________________________________________________________ global_average_pooling2d_2 ( (None, 64) 0 _________________________________________________________________ dense_4 (Dense) (None, 32) 2080 _________________________________________________________________ activation_22 (Activation) (None, 32) 0 _________________________________________________________________ dense_5 (Dense) (None, 10) 330 _________________________________________________________________ activation_23 (Activation) (None, 10) 0 ================================================================= Total params: 141,258 Trainable params: 141,258 Non-trainable params: 0 _________________________________________________________________

Training and Testing

Here comes the best part: training and getting our actual results!

First off, we’ll need to do a bit of data preprocessing to have the data properly formatted for training. Our training images need to be in an array of 4 dimensions with the format of:
…
